Desktop/ML-Model/content_based_model.tflite (tflite, 398132 bytes, 5 tensors)

model/embedding/embedding_lookup f4 [143, 50]
0.043017406 0.077310815 -0.05047122 -0.06605779 0.067615524 0.058155082 -0.054178413 0.06363611
-0.02061796 -0.060237773 0.043725282 0.026601015 0.035418797 0.04778805 0.061336134 0.07415978
-0.0698374 -0.04651901 -0.081688896 0.05664165 -0.06626753 0.07033473 -0.06005447 -0.0702971
0.06756388 -0.05773432 0.07125018 -0.0704624 0.047000043 -0.07152575 -0.04977902 -0.061631
-0.07331795 0.04875445 0.039002422 -0.076080486 0.061932687 -0.03891033 -0.062276874 0.033060174
0.080250174 -0.06889838 -0.06218044 -0.07712534 0.08661783 -0.04177235 -0.056922514 -0.072817
-0.07498642 0.057407342 -0.073297665 -0.072107404 -0.06842723 0.05189206 7.711831e-05 0.030711245
0.0025080908 0.064007774 -0.10254201 -0.065882154 0.10268802 -0.10218349 0.075202905 0.0997939
0.08666313 -0.008325804 0.054087646 0.086132646 0.08862677 0.08235814 0.08723641 0.07931082
-0.086035155 0.0046105566 0.036965583 0.057315804 -0.09829193 -0.06567812 0.040977683 0.08021162
0.03291716 -0.067141004 0.08205984 -0.037168473 -0.035273675 0.10260229 -0.03207289 0.045554783
-0.011764595 0.082243755 -0.08727475 -0.022870608 0.07139099 0.061869744 -0.05809375 -0.08336172
0.08984893 0.096598014 0.05478983 -0.06651143 -0.06631342 0.087942414 -0.0699293 -0.068184294
0.05493309 -0.049363118 -0.029770473 0.0031099487 0.033181887 0.09203885 -0.09573442 0.008561084
0.018180298 -0.078559585 0.051380355 0.042416967 -0.049516093 0.037491728 0.025899233 -0.090672344
-0.071894035 0.056573387 0.025535261 0.09665783 -0.06814973 -0.042345293 -0.032625474 -0.05244086
-0.056107588 -0.061129965 0.075357355 -0.075310506 -0.0816201 0.093564965 -0.10301949 0.09486729
-0.087643676 -0.07317763 0.07410052 0.04764793 -0.061537813 -0.07568091 -0.06716605 0.014555768
-0.09733165 -0.0497672 -0.0478611 -0.04418905 0.08701158 -0.051302787 0.08210269 0.049236286
0.08682977 0.070033245 0.023343826 -0.07271477 0.0072268303 -0.018799564 -0.10009657 0.10784131
0.06564415 -0.08550401 0.06657593 -0.074338794 0.07089697 0.001181447 -0.10871137 -0.027755097
-0.10260357 0.110855155 -0.079027295 -0.06839285 -0.03337365 -0.007455187 -0.066661246 -0.09665426
0.031961523 -0.08693499 0.0832614 0.07458543 -0.117181 0.078295335 0.10045855 -0.07259742
0.06828328 -0.0965104 0.1105085 0.022361292 -0.07126514 -0.05020962 0.06627493 -0.09508748
0.10361055 -0.0732898 -0.0739413 -0.08871701 -0.08074483 0.017394643 -0.099702775 0.06955893
-0.08581495 -0.044382237 -0.0598724 0.09685043 -0.08326238 -0.076193616 -0.025510164 0.07567253
-0.07473426 -0.08883934 0.035088375 0.020688213 0.053720072 0.03880098 -0.067565106 0.0040091206
0.037465792 0.010981493 -0.03800113 0.051579542 0.07130406 -0.002314938 0.09399831 -0.042642787
0.08001694 0.040832862 -0.09120133 0.045111384 0.09840299 0.0814085 0.05372923 4.5812143e-05
0.027780496 -0.06720766 0.06301054 0.05333307 0.061244935 0.09660278 -0.09964266 0.07866963
-0.06617072 -0.084813975 -0.015004972 0.054627787 -0.07299929 -0.05425128 -0.057789348 0.09622695
0.1016078 0.07764223 -0.026947234 -0.011008852 -0.06850689 0.00017513557 0.012624851 0.07982594
00000000: 0533 303d 2255 9e3d e9ba 4ebd 4e49 87bd
00000010: 027a 8a3d 0634 6e3d 2fea 5dbd a653 823d
00000020: ffe6 a8bc e2bb 76bd 4819 333d 5fea d93c
00000030: 4d13 113d 67bd 433d 993b 7b3d 15e1 973d
00000040: e906 8fbd b88a 3ebd 824c a7bd 1301 683d
00000050: 45b7 87bd a80b 903d adfb 75bd edf7 8fbd
00000060: ee5e 8a3d d37a 6cbd 9deb 913d 974e 90bd
00000070: 1e83 403d 187c 92bd 16e5 4bbd ca70 7cbd
00000080: b927 96bd bfb2 473d 01c1 1f3d 16d0 9bbd
00000090: 21ad 7d3d 7060 1fbd 0916 7fbd 1b6a 073d
000000a0: 345a a43d 981a 8dbd ebb0 7ebd e4f3 9dbd
000000b0: b064 b13d 7c19 2bbd 9527 69bd 1421 95bd
000000c0: 7b92 99bd f623 6b3d 161d 96bd 0cad 93bd
000000d0: 9323 8cbd c58c 543d 94ba a138 2696 fb3c
000000e0: c85e 243b 8216 833d 8c01 d2bd 39ed 86bd
000000f0: 194e d23d 9445 d1bd fb03 9a3d bf60 cc3d
00000100: 707c b13d f468 08bc 028b 5d3d 5066 b03d
00000110: f481 b53d 62ab a83d 01a9 b23d b66d a23d
00000120: 3333 b0bd 2714 973b 3969 173d fac3 6a3d
00000130: 484d c9bd 4082 86bd 37d8 273d fd45 a43d
00000140: 25d4 063d 3981 89bd fd0e a83d f83d 18bd
00000150: 217b 10bd 2621 d23d dd5e 03bd a797 3a3d
00000160: 4ac0 40bc 6a6f a83d 1bbd b2bd 245b bbbc
00000170: 7035 923d 216b 7d3d b6f3 6dbd 8db9 aabd
00000180: b702 b83d 2ed5 c53d 4d6b 603d 2537 88bd
00000190: 55cf 87bd 271b b43d 1837 8fbd 35a4 8bbd
000001a0: 8501 613d fb30 4abd 35e1 f3bc 48d0 4b3b
000001b0: bbe9 073d dd7e bc3d 6810 c4bd ca43 0c3c
000001c0: d9ee 943c d9e3 a0bd 3574 523d 6abd 2d3d
000001d0: 63d1 4abd ed90 193d a12a d43c 6cb2 b9bd
000001e0: 2e3d 93bd 7fb9 673d 532f d13c 8af4 c53d
000001f0: 1692 8bbd 4272 2dbd 4aa2 05bd 3acc 56bd
00000200: 12d1 65bd 6a63 7abd f554 9a3d 653c 9abd
00000210: 7028 a7bd fd9e bf3d e2fb d2bd c849 c23d
00000220: 877e b3bd 27de 95bd 03c2 973d 7a2a 433d
00000230: 130f 7cbd 98fe 9abd 5b8e 89bd 517b 6e3c
00000240: d155 c7bd b1d8 4bbd 000a 44bd 94ff 34bd
00000250: 2133 b23d df22 52bd 7525 a83d fdab 493d
00000260: ced3 b13d 976d 8f3d 8d3b bf3c 7beb 94bd
00000270: 0ccf ec3b 8b01 9abc 6eff ccbd e8db dc3d
00000280: 7170 863d ba1c afbd f658 883d f03e 98bd
00000290: 6e32 913d c8da 9a3a 11a4 debd a85e e3bc
000002a0: d221 d2bd 0708 e33d 10d9 a1bd 8d11 8cbd
000002b0: cfb2 08bd a44a f4bb b185 88bd abf2 c5bd
000002c0: 16ea 023d f90a b2bd f484 aa3d 3fc0 983d
000002d0: 98fc efbd 4e59 a03d 36bd cd3d f5ad 94bd
000002e0: 1bd8 8b3d 3fa7 c5bd 4852 e23d 072f b73c
000002f0: 75f3 91bd 9aa8 4dbd 27bb 873d 3abd c2bd
00000300: c531 d43d f618 96bd 896e 97bd 44b1 b5bd
00000310: 8c5d a5bd 367f 8e3c f830 ccbd ea74 8e3d
00000320: c0bf afbd 26ca 35bd c33c 75bd 8559 c63d
00000330: 7785 aabd 660b 9cbd b1fa d0bc 33fa 9a3d
00000340: 470e 99bd 66f1 b5bd d4b8 0f3d 547a a93c
00000350: 9409 5c3d c7ed 1e3d 935f 8abd f15e 833b
00000360: bb75 193d b8eb 333c 13a7 1bbd 1245 533d
00000370: dd07 923d 37b6 17bb 3082 c03d 34aa 2ebd
00000380: ecdf a33d 5c40 273d c3c7 babd b7c6 383d
00000390: 8287 c93d 80b9 a63d 2e13 5c3d 6a26 4038
000003a0: ec93 e33c 2ba4 89bd ac0b 813d c773 5a3d
000003b0: f8db 7a3d aed7 c53d 7311 ccbd 8b1d a13d
000003c0: 8484 87bd f3b2 adbd 6ad7 75bc 63c1 5f3d
000003d0: a780 95bd 9736 5ebd 86b4 6cbd a312 c53d
000003e0: c017 d03d e402 9f3d 72c0 dcbc 795e 34bc
000003f0: 574d 8cbd 99a4 3739 77d8 4e3c c87b a33d

model/dense/BiasAdd/ReadVariableOp f4 [128]
0.0195981 -0.008107868 0.022128778 0.024113454 -0.00877652 0.033965096 0.016181672 0.030928554
0.032260265 0.027732441 0.025593022 0.029265936 0.028361492 -0.010935416 0.023427786 0.02062179
0.020779086 0.028754702 0.034007814 0.02010685 0.01728615 0.025252007 -0.005995255 0.04209626
0.015856488 0.042010196 0.015526042 0.025837213 0.023217252 0.01585224 0.019531671 0.04051866
0.026678858 0.024631191 0.032024395 0.03260929 -0.010848715 0.028861187 0.034142587 0.026706034
0.035554837 0.025692226 0.023419078 0.03498144 0.029656801 0.029865177 0.028528308 0.026490737
0.0390209 0.024338568 0.028059918 0.03223929 0.03627163 0.034199085 0.03165887 0.031004267
0.015323327 0.028918827 0.026668109 0.022493172 0.029267412 0.030252092 0.025175579 0.024850128
0.027259847 -0.010618326 0.035141632 0.028993305 0.024253918 0.027023975 0.0008682277 0.03181361
0.04833856 0.02153311 0.021601437 0.019930806 0.037639715 0.04155172 0.037306108 0.013296507
0.025239635 0.023020927 0.0048277476 0.033648465 0.031541597 0.009950461 0.03770398 0.009455207
0.022937689 0.022380492 0.029943738 0.037211664 0.02651932 0.020166755 0.03803255 0.037642837
0.036922317 0.040137578 0.035992358 0.026562678 0.016011067 0.02261553 0.027335463 0.034362525
0.031505253 0.03227762 0.039740145 0.033071596 0.025484074 -0.009679457 0.030695276 0.015668862
0.027839633 0.01377045 0.034114387 0.03378402 0.031104598 0.029354578 0.023824772 0.035353567
0.019322675 0.025593165 0.036428526 0.033719636 0.023119133 0.019979732 0.03541267 0.034391325
00000000: 328c a03c ddd6 04bc 6947 b53c 9489 c53c
00000010: 65cb 0fbc fc1e 0b3d 6d8f 843c e15d fd3c
00000020: 5723 043d 252f e33c 75a8 d13c 1ebf ef3c
00000030: 5c56 e83c 762a 33bc a1eb bf3c 07ef a83c
00000040: e738 aa3c fb8e eb3c c74b 0b3d 1fb7 a43c
00000050: af9b 8d3c 4cdd ce3c d873 c4bb 216d 2c3d
00000060: 77e5 813c e212 2c3d f160 7e3c 90a8 d33c
00000070: 1b32 be3c 8fdc 813c e200 a03c e5f6 253d
00000080: 9f8d da3c 5ac7 c93c 032c 033d 5291 053d
00000090: cfbe 31bc 4c6e ec3c 19d9 0b3d 9dc6 da3c
000000a0: f3a1 113d 8178 d23c 5ed9 bf3c b348 0f3d
000000b0: d2f2 f23c d1a7 f43c 33b4 e93c 1a03 d93c
000000c0: 61d4 1f3d ad61 c73c eadd e53c 590d 043d
000000d0: 9091 143d 5714 0c3d bbac 013d a9fc fd3c
000000e0: b10e 7b3c 2de7 ec3c 1477 da3c 9a43 b83c
000000f0: 36c2 ef3c 3cd3 f73c 043d ce3c 7f92 cb3c
00000100: 0b50 df3c 7df8 2dbc acf0 0f3d 5e83 ed3c
00000110: 27b0 c63c 6261 dd3c c699 633a fd4e 023d
00000120: a7fe 453d 3466 b03c 7ff5 b03c ee45 a33c
00000130: 1a2c 1a3d 2332 2a3d 4ace 183d 98d9 593c
00000140: 5ac3 ce3c 6296 bc3c 1532 9e3b f9d2 093d
00000150: c331 013d 4207 233c 7d6f 1a3d 03ea 1a3c
00000160: d2e7 bb3c 4b57 b73c 924c f53c 426b 183d
00000170: 0c3f d93c c034 a53c 05c8 1b3d 602f 1a3d
00000180: db3b 173d 4d67 243d b96c 133d f999 d93c
00000190: a429 833c 3444 b93c 9fee df3c b8bf 0c3d
000001a0: a70b 013d 8a35 043d 90c6 223d 1576 073d
000001b0: fac3 d03c 9696 1ebc a974 fb3c fc5b 803c
000001c0: f10f e43c 749d 613c 87bb 0b3d 1d61 0a3d
000001d0: 12cf fe3c 0379 f03c 2b2c c33c e7ce 103d
000001e0: 964a 9e3c c2a8 d13c 1436 153d 9a1d 0a3d
000001f0: 5664 bd3c 89ac a33c e00c 113d ebdd 0c3d

model/dense_1/BiasAdd/ReadVariableOp f4 [16]
0.022281038 -0.02403444 0.017653765 0.02118182 -0.021368818 0.026251145 -0.027843626 -0.0036201254
-0.026622185 -0.013937545 -0.02988199 -0.028040683 -0.021097697 0.029391034 -0.024537506 -0.029777328
00000000: b986 b63c e0e3 c4bc a19e 903c 7f85 ad3c
00000010: a90d afbc a40c d73c 5118 e4bc a03f 6dbb
00000020: c516 dabc 4d5a 64bc 13cb f4bc 93b5 e5bc
00000030: 14d5 acbc 77c5 f03c e102 c9bc 95ef f3bc

model/dense/MatMul f4 [128, 700]
-0.023878183 0.019730277 0.0052723726 -0.013164132 -0.013507089 0.063214764 0.0021388484 0.050139964
-0.025149537 0.004090375 -0.004810223 0.061865658 0.052486874 -0.058615793 -0.027893249 -0.045607988
0.044175863 -0.0027507716 -0.029372986 0.07886393 -0.009039947 0.08805307 0.054943908 -0.053367138
-0.0053920955 -0.096069135 0.08094128 -0.103284925 -0.035219047 -0.0854589 -0.030542077 -0.024197934
-0.0674695 -0.007091929 -0.041301906 -0.0012472585 0.0479029 0.04595658 0.009714742 0.038073845
0.031411976 -0.09975344 -0.08137189 0.021906964 -0.0585523 -0.113997266 -0.014578713 0.05630305
-0.05224382 0.007862708 0.09542378 0.057349198 -0.041958664 -0.0527588 -0.023874594 -0.016492264
-0.028424755 0.038860768 0.028463226 -0.030288063 0.023237702 0.032880183 -0.05922033 0.00101448
0.0847542 0.091022015 -0.041263316 0.0059668664 -0.014374527 0.059552565 0.028439883 -0.023782976
-0.05958941 0.002984825 0.040931143 -0.08189266 0.1156734 0.006721835 0.066493325 -0.06404703
-0.08132987 -0.03631046 -0.026917841 0.07736827 0.1251866 -0.031607017 -0.008935496 -0.0869798
-0.09164864 -0.0077732257 -0.03942669 -0.06959019 -0.0008926706 -0.123309076 -0.04049095 -0.065402694
0.026042111 -0.050256133 -0.09626072 0.07050007 -0.022059137 0.04492839 -0.07601267 -0.037206236
-0.0009767925 -0.025219748 0.059428938 0.008866699 -0.089447424 -0.10706529 0.09058259 -0.02730427
-0.015762022 0.035851993 0.03317372 -0.012575454 -0.04385422 0.017631074 -0.010660796 0.020354029
-0.0021658184 0.039225046 0.004779843 -0.109661 0.10701094 -0.054030824 -0.010507218 -0.09548785
-0.025830453 -0.07735913 -0.115293466 -0.061813995 -0.07772513 0.09682187 0.11537945 -0.114241734
-0.058348082 -0.016691737 -0.071722016 0.018674957 0.0950503 -0.049420327 0.017504603 -0.05750778
0.011084553 0.025326615 -0.025512548 0.0010871456 -0.075717986 -0.026652629 0.05342775 0.08316561
-0.106283605 0.011566435 0.11321586 0.052292097 -0.12404162 0.09448095 0.063569784 -0.079675324
0.09568505 0.027574733 -0.021250982 0.09085002 0.012180006 0.097712345 -0.040869083 -0.045754544
0.05479714 -0.013392085 -0.06058545 0.09901349 -0.030167257 -0.10755384 0.071144186 -0.09519605
-0.013725324 0.03364223 0.036951322 0.026312854 0.011951015 0.039667595 -0.13138781 0.11612215
-0.00019639143 -0.085497186 -0.03318977 -0.12614708 -0.072949834 0.028509097 0.05841236 -0.060942758
-0.008899216 -0.07257094 -0.028556209 -0.043141846 -0.014787876 -0.039461855 0.0042085326 -0.031706464
0.12216953 0.015756952 -0.102001406 0.016231492 0.11118429 0.08382799 0.030390248 0.05623977
-0.033797424 0.0147072 0.007811292 0.07655492 0.10288088 0.07852246 0.10537371 -0.014781799
-0.074516885 -0.063396126 -0.07181812 0.058560744 -0.011598692 0.035675444 0.036959883 -0.024013273
0.0699621 0.030691696 0.051180784 -0.04642196 0.063641965 0.026470952 -0.10125514 -0.08614744
-0.069972225 -0.008061369 -0.009840257 0.04698905 0.022591943 -0.022037674 -0.016057989 0.017554954
-0.032697465 -0.022209503 0.022571573 0.02946421 -0.012960421 0.034439232 -0.090320565 -0.12390994
-0.069755465 0.11378592 0.016723417 -0.0363821 -0.04559072 -0.018344663 0.02881768 0.03123116
00000000: 2e9c c3bc 64a1 a13c dec3 ac3b 5fae 57bc
00000010: d64c 5dbc be76 813d ec2b 0c3b 905f 4d3d
00000020: 6706 cebc 8d08 863b 139f 9dbb d866 7d3d
00000030: 7afc 563d 1d17 70bd 6280 e4bc 71cf 3abd
00000040: c0f1 343d 4a46 34bb 9e9f f0bc 6a83 a13d
00000050: 491c 14bc 2b55 b43d dd0c 613d 8097 5abd
00000060: 2db0 b0bb e5bf c4bd 8bc4 a53d 0c87 d3bd
00000070: d941 10bd 1305 afbd 6133 fabc bf3a c6bc
00000080: 732d 8abd 6a63 e8bb 302c 29bd 0d7b a3ba
00000090: d535 443d f83c 3c3d 952a 1f3c 52f3 1b3d
000000a0: d8a9 003d 884b ccbd 4ea6 a6bd 3c76 b33c
000000b0: 89d4 6fbd 6677 e9bd 8edb 6ebc 079e 663d
000000c0: 9efd 55bd 96d2 003c 8b6d c33d fee6 6a3d
000000d0: d9dc 2bbd 9d19 58bd a794 c3bc c91a 87bc
000000e0: 08db e8bc 782c 1f3d b62b e93c ac1e f8bc
000000f0: fe5c be3c 5fad 063d 0491 72bd 4df8 843a
00000100: 9c93 ad3d c069 ba3d b903 29bd b485 c33b
00000110: 2383 6bbc 64ed 733d c2fa e83c 84d4 c2bc
00000120: 0614 74bd 0e9d 433b 6aa7 273d 57b7 a7bd
00000130: 2de6 ec3d d742 dc3b a72d 883d 172b 83bd
00000140: 4690 a6bd 47ba 14bd ce82 dcbc 4173 9e3d
00000150: eb30 003e 5c76 01bd 3066 12bc 7722 b2bd
00000160: 48b2 bbbd 8bb6 febb e27d 21bd 4d85 8ebd
00000170: 1c02 6aba 7889 fcbd d7d9 25bd d9f1 85bd
00000180: 4456 d53c 60d9 4dbd 5724 c5bd 5762 903d
00000190: 5db5 b4bc d506 383d 88ac 9bbd 9165 18bd
000001a0: b807 80ba a599 cebc c26b 733d a245 113c
000001b0: 3630 b7bd 0c45 dbbd 5d83 b93d 34ad dfbc
000001c0: 5b1f 81bc 8ad9 123d 2be1 073d 4709 4ebc
000001d0: 7ca0 33bd 0b6f 903c 9faa 2ebc 7ebd a63c
000001e0: 67f0 0dbb 71aa 203d 3ba0 9c3b f295 e0bd
000001f0: 8d28 db3d 6d4f 5dbd 7726 2cbc 228f c3bd
00000200: 639a d3bc 776e 9ebd fb1e ecbd ac30 7dbd
00000210: 5a2e 9fbd 8b4a c63d 104c ec3d 92f7 e9bd
00000220: 66fe 6ebd 1cbd 88bc fee2 92bd 39fc 983c
00000230: bba9 c23d f86c 4abd d065 8f3c 478d 6bbd
00000240: fc9b 353c c379 cf3c b1ff d0bc 8e7e 8e3a
00000250: 0812 9bbd 9d56 dabc 0ed7 5a3d bb52 aa3d
00000260: 38ab d9bd 2581 3d3c b8dd e73d 3d30 563d
00000270: 8809 febd 3a7f c13d e030 823d d12c a3bd
00000280: 86f6 c33d 68e4 e13c 8a16 aebc 930f ba3d
00000290: a68e 473c 691d c83d 5766 27bd 1e69 3bbd
000002a0: f772 603d 7a6a 5bbc 7328 78bd 96c7 ca3d
000002b0: 5321 f7bc 3045 dcbd 0bb4 913d 26f6 c2bd
000002c0: 2ee0 60bc 6fcc 093d 455a 173d 0e8e d73c
000002d0: 31ce 433c 7d7a 223d 878a 06be 73d1 ed3d
000002e0: 6cee 4db9 2619 afbd fff1 07bd b32c 01be
000002f0: b966 95bd e98b e93c cc41 6f3d 1d9f 79bd
00000300: 04ce 11bc 13a0 94bd b6ee e9bc 81b5 30bd
00000310: d948 72bc c1a2 21bd bbe7 893b a3de 01bd
00000320: 0534 fa3d b914 813c 1de6 d0bd e8f7 843c
00000330: 97b4 e33d 02ae ab3d f8f4 f83c ac5b 663d
00000340: 2b6f 0abd 78f6 703c def5 ff3b d3c8 9c3d
00000350: 36b3 d23d 62d0 a03d 2cce d73d 5c2f 72bc
00000360: 4f9c 98bd d4d5 81bd 6115 93bd 64dd 6f3d
00000370: 7108 3ebc 6a20 123d 3f63 173d 7cb7 c4bc
00000380: 4a48 8f3d 276d fb3c f1a2 513d f424 3ebd
00000390: b856 823d 9cd9 d83c db5e cfbd 126e b0bd
000003a0: 994d 8fbd d513 04bc 0739 21bc 9777 403d
000003b0: bd12 b93c 5a88 b4bc 0b8c 83bc 68cf 8f3c
000003c0: c7ed 05bd b4f0 b5bc 05e8 b83c ed5e f13c
000003d0: f257 54bc 2710 0d3d fdf9 b8bd 7fc4 fdbd
000003e0: f4db 8ebd 9808 e93d 8cff 883c 6605 15bd
000003f0: 56bd 3abd 8c47 96bc 0e13 ec3c 7dd8 ff3c

model/dense_1/MatMul f4 [16, 128]
0.019130848 0.003359482 0.15467381 0.22933368 -0.06726112 -0.22204758 0.16952278 0.0039861794
0.06646 0.22619751 -0.023875695 -0.068816915 0.13311628 -0.079446085 -0.10826835 -0.23352848
-0.06395008 0.03537458 -0.14850947 0.13297293 0.054613847 0.10112238 -0.013596931 -0.24128361
0.19650723 -0.0977852 -0.24047457 -0.13004962 0.07822495 -0.21396127 0.077046104 -0.24528775
-0.17074789 0.186307 0.16765878 -0.040391464 -0.02588784 -0.2529062 0.13198727 0.14292207
0.17938642 0.044722304 -0.0046274345 0.16028267 -0.2066488 0.008860001 0.026298065 -0.17159843
-0.23597726 0.14291544 -0.1860706 0.07152138 -0.19050445 -0.055392962 0.1034002 0.07414367
-0.037103854 0.24260795 0.21037343 0.03001912 -0.2650305 0.14044368 0.21979454 0.16422085
0.1114895 -0.05870513 0.24640153 -0.1147599 0.19857812 0.07280296 -0.10152159 -0.08277631
-0.2574821 0.19370696 -0.058224767 -0.19349553 0.07150069 -0.21092616 -0.16249269 0.025439912
0.16808434 -0.09173515 -0.14171253 0.23875609 -0.14131053 -0.18252443 0.011491233 -0.17468412
0.08243922 0.23673432 0.107489266 0.009093102 0.07050376 -0.2207522 -0.21808624 -0.020791294
-0.18542503 -0.23470704 -0.22254148 0.22539337 0.13673006 0.14514115 -0.20298453 -0.22667974
0.23491795 0.22832988 0.1963211 -0.16574995 0.2143077 -0.031026382 -0.06728594 0.09415622
-0.084038146 0.23640369 -0.079777785 -0.27445838 0.048934788 -0.17084919 0.16886416 -0.16567472
-0.17182596 -0.16743109 -0.11692558 -0.17261186 0.12387673 0.0030685787 -0.1450373 -0.1796989
0.0199259 -0.16894285 -0.25119907 -0.1992577 0.17908612 0.08146743 0.046005435 -0.2365731
-0.055273455 -0.16869631 -0.1400202 0.000759186 -0.22940134 -0.065907635 0.13477121 0.1407368
0.18107161 -0.17734325 -0.2100106 -0.2063419 -0.039936885 -0.073608585 0.035597388 0.03495287
0.10659657 -0.09516696 0.039323203 0.21106015 -0.13744645 0.25017315 -0.11716106 0.0114973895
-0.015811052 -0.103799984 -0.20023431 0.03925531 -0.01090255 0.1731458 -0.19956312 -0.022798378
-0.02192273 -0.08211202 -0.05363963 0.20746557 0.116010435 0.1444392 0.045451365 -0.15642168
0.17754124 -0.22721086 -0.23903386 -0.18478473 0.057909593 0.059722926 -0.051215768 0.096138
-0.09402152 -0.2066266 0.11112461 -0.036210585 0.15661865 0.059285972 -0.023529897 -0.16374342
-0.073395774 0.054479573 0.13752407 -0.19263287 0.17155811 -0.110286154 -0.13538699 0.120658726
-0.06047751 0.043492593 0.124473125 -0.038984403 -0.16507915 -0.005313282 -0.030754277 -0.10094353
0.044605892 -0.19567469 -0.101815864 -0.21982095 -0.04758086 0.06690061 0.03725705 0.06029505
0.0078033665 -0.073376976 0.094129525 -0.11457409 -0.19589096 -0.24593271 -0.07355293 0.096877754
-0.18224785 0.1608258 0.146201 0.033550095 -0.054467686 -0.20171078 -0.06605858 -0.16230547
0.18419309 -0.23061593 -0.19078426 -0.06235097 0.13088961 -0.059663616 0.19965583 -0.08777726
-0.045959387 0.17155002 0.21555212 -0.1663444 0.021751972 -0.23111823 -0.070334464 0.14368232
-0.14922635 0.18499863 0.21438187 -0.091546334 0.094760545 0.028635312 -0.19760866 -0.15604495
00000000: 4cb8 9c3c c12a 5c3b d062 1e3e 73d6 6a3e
00000010: 33c0 89bd 7160 63be 6197 2d3e 7f9e 823b
00000020: 2e1c 883d 52a0 673e f696 c3bc e2ef 8cbd
00000030: a24f 083e a1b4 a2bd ccbb ddbd 1722 6fbe
00000040: 42f8 82bd f0e4 103d de12 18be 0e2a 083e
00000050: c5b2 5f3d 4019 cf3d a9c5 5ebc 0d13 77be
00000060: 3139 493e 9b43 c8bd f73e 76be ba2b 05be
00000070: 6734 a03d aa18 5bbe 59ca 9d3d b62c 7bbe
00000080: 89d8 2ebe 43c7 3e3e beae 2b3e 8571 25bd
00000090: bc12 d4bc ec7c 81be ac27 073e 2a5a 123e
000000a0: 13b1 373e bc2e 373d bca1 97bb 2421 243e
000000b0: be9b 53be 8a29 113c 0a6f d73c 80b7 2fbe
000000c0: 06a4 71be 6d58 123e 4b89 3ebe cd79 923d
000000d0: 9913 43be bbe3 62bd 7cc3 d33d a3d8 973d
000000e0: 36fa 17bd 386e 783e 226c 573e a8ea f53c
000000f0: 14b2 87be 78d0 0f3e d211 613e 8329 283e
00000100: 9b54 e43d ca74 70bd af50 7c3e 3d07 ebbd
00000110: 1058 4b3e b819 953d 8dea cfbd a086 a9bd
00000120: b2d4 83be 1e5b 463e 187d 6ebd b123 46be
00000130: f46e 923d 07fd 57be 7c64 26be 5d67 d03c
00000140: 4d1e 2c3e a3df bbbd 171d 11be 7a7c 743e
00000150: b5b3 10be afe7 3abe b945 3c3c 65e0 32be
00000160: e5d5 a83d 7b6a 723e 5523 dc3d 3cfb 143c
00000170: 4664 903d dd0c 62be 0052 5fbe 8152 aabc
00000180: 0fe0 3dbe 0b57 70be eae1 63be 85cd 663e
00000190: f702 0c3e e29f 143e 2ddb 4fbe bc1e 68be
000001a0: 558e 703e 4fcf 693e 6608 493e 5bba 29be
000001b0: 7a73 5b3e 0a2b febc 36cd 89bd fad4 c03d
000001c0: 311c acbd cf13 723e 8962 a3bd cf85 8cbe
000001d0: d86f 483d 17f3 2ebe baea 2c3e a2a6 29be
000001e0: 25f3 2fbe 0e73 2bbe ae76 efbd 2ac1 30be
000001f0: 15b3 fd3d 351a 493b a884 14be fd02 38be
00000200: a43b a33c 5bff 2cbe 2a9d 80be 360a 4cbe
00000210: 5a62 373e 65d8 a63d 3270 3c3d 3840 72be
00000220: 6b66 62bd babe 2cbe 7561 0fbe 1c04 473a
00000230: 2fe8 6abe 95fa 86bd 7701 0a3e 4f1d 103e
00000240: d66a 393e 7899 35be 050d 57be 4b4b 53be
00000250: dc94 23bd 19c0 96bd 91ce 113d be2a 0f3d
00000260: 4d4f da3d e5e6 c2bd 5e11 213d 2720 583e
00000270: c3be 0cbe b216 803e 23f2 efbd 8c5f 3c3c
00000280: 2e86 81bc 1695 d4bd 390a 4dbe 2dca 203d
00000290: 9ca0 32bc 224d 313e 465a 4cbe aac3 babc
000002a0: 4c97 b3bc 592a a8bd 3bb5 5bbd db71 543e
000002b0: e196 ed3d dfe7 133e 362b 3a3d 012d 20be
000002c0: 5fcd 353e f7a9 68be 4bc5 74be 3538 3dbe
000002d0: 9c32 6d3d 07a0 743d a0c7 51bd 00e4 c43d
000002e0: 5b8e c0bd ec95 53be 4d95 e33d 8d51 14bd
000002f0: a460 203e d9d5 723d c5c1 c0bc 5bac 27be
00000300: 8650 96bd f925 5f3d 1cd3 0c3e 8d41 45be
00000310: eeac 2f3e b5dd e1bd e3a2 0abe ec1b f73d
00000320: 44b7 77bd 4a25 323d c4eb fe3d 1cae 1fbd
00000330: 820a 29be 0a1b aebb 65f0 fbbc 7bbb cebd
00000340: abb4 363d f25e 48be d684 d0bd be18 61be
00000350: 26e4 42bd 3003 893d d99a 183d f1f7 763d
00000360: 62b3 ff3b ab46 96bd fbc6 c03d d2a5 eabd
00000370: a497 48be c9d5 7bbe eba2 96bd d867 c63d
00000380: 2e9f 3abe 85af 243e b7b5 153e d36b 093d
00000390: 8219 5fbd 458d 4ebe b949 87bd 6833 26be
000003a0: 1d9d 3c3e 9526 6cbe f35c 43be bb63 7fbd
000003b0: ed07 063e d661 74bd 9472 4c3e 90c4 b3bd
000003c0: e93f 3cbd cfaa 2f3e b2b9 5c3e 3056 2abe
000003d0: 3131 b23c 42aa 6cbe 840b 90bd 7521 133e
000003e0: cbce 18be 4870 3d3e ec86 5b3e a57c bbbd
000003f0: d111 c23d 9a94 ea3c ed59 4abe 3fca 1fbe
